apps/hardware_benchmarks/apps/InvRes1_dw_fp/pytorch_gold/kernel_host_stencil.npy (npy, 1280 bytes, 1 tensors)

array f4 [32, 1, 3, 3]
-2.828125 0.15917969 2.625 -7.3125 -0.58984375 8.1875 -0.07714844 -0.05493164
0.049316406 -4.0745363e-09 -3.1141099e-09 -4.831236e-09 2.05182e-09 2.7474016e-08 -8.20728e-09 -4.7439244e-09
2.3428584e-09 -4.48199e-09 -0.12988281 0.110839844 0.110839844 3.125 -3.59375 -0.20703125
-0.13183594 0.010986328 0.122558594 -1.3359375 -1.1171875 1.734375 -0.796875 -1.796875
-0.060302734 1.859375 -0.22949219 1.4375 -0.70703125 -0.50390625 0.6875 -0.73828125
-0.609375 0.107421875 0.64453125 0.23925781 0.28320312 -0.15917969 0.39648438 -0.15332031
-0.12890625 4.40625 -0.203125 -0.009643555 -1.296875 0.04321289 -0.8984375 -0.74609375
0.5703125 -0.3046875 -0.75390625 0.2890625 0.40039062 0.25390625 0.019897461 0.04736328
-1.3203125 -0.11279297 -0.38476562 3.9375 -0.122558594 0.014526367 -0.24609375 -0.16503906
-6.230039e-11 1.1732482e-10 3.88809e-11 4.9340088e-11 5.966285e-10 3.619789e-10 -1.555236e-10 1.2050805e-11
-1.6643753e-10 0.49414062 0.8125 -0.68359375 0.68359375 0.7734375 -0.43164062 -0.703125
-0.49414062 0.31640625 -0.056884766 -0.96484375 0.0072021484 -0.024047852 -5.0 -0.859375
0.21972656 5.5625 1.0390625 -0.13085938 -0.171875 -0.1875 -0.2265625 1.71875
0.029907227 -0.07861328 -0.053222656 -0.13378906 -1.0868462e-10 1.891749e-10 -4.6611603e-12 -5.0931703e-11
3.3105607e-10 1.209628e-10 -1.2278178e-10 -4.4337867e-11 -1.4551915e-10 2.703125 1.578125 -1.640625
0.38476562 1.359375 -0.37109375 -1.4375 -0.53125 -0.07861328 -2.1145752e-11 -1.5234036e-11
-1.7848834e-11 -4.9340088e-11 -4.7748472e-11 2.1373125e-11 -2.4328983e-11 -6.002665e-11 -3.3651304e-11 -3.265625
-4.96875 -1.109375 -0.9296875 -0.5859375 -0.5625 4.15625 5.5625 1.609375
0.58984375 -0.5546875 -0.12597656 -3.171875 3.515625 -0.046142578 0.17089844 -0.4453125
0.014160156 -0.45117188 6.78125 -0.60546875 0.17871094 -3.09375 0.2734375 -0.057617188
-0.515625 0.045166016 0.12207031 -0.055419922 -0.060791016 -0.35546875 -3.28125 4.125
0.104003906 -0.064941406 0.025634766 -3.7252903e-09 1.22818165e-08 -1.5832484e-08 9.371433e-09 3.958121e-08
-1.6647391e-08 -1.0768417e-08 -1.7578714e-08 1.7826096e-09 0.32226562 -2.234375 0.234375 -1.15625
-4.28125 -0.36914062 0.80078125 6.65625 0.084472656 -3.929017e-10 6.4028427e-10 -7.8216544e-10
2.6011548e-10 9.546056e-09 -7.6761353e-10 -1.9354047e-09 -1.2878445e-09 -1.0768417e-09 -3.6379788e-11 -7.867129e-11
-2.0577318e-11 -6.4574124e-11 -2.8990144e-11 -1.0288659e-11 -4.7748472e-11 1.2789769e-11 -2.1259439e-11 0.671875
0.8671875 -0.85546875 0.6640625 1.0546875 -0.390625 -0.890625 -0.4296875 0.063964844
-0.20019531 -0.921875 0.032958984 0.20507812 0.875 -0.013244629 -0.011474609 0.040527344
-0.024169922 2.859375 -2.5625 -0.30664062 5.4375 8.6875 -4.28125 -2.5
-1.59375 -0.5078125 0.13183594 -0.30664062 0.25390625 -0.18359375 -3.59375 3.6875
0.11376953 -2.015625 1.9375 -0.07421875 0.17089844 -0.08642578 0.1484375 -0.36523438
0.18652344 -0.034423828 0.099121094 -0.05078125 0.83203125 0.9921875 -1.0390625 0.8515625
00000000: 0000 35c0 0000 233e 0000 2840 0000 eac0
00000010: 0000 17bf 0000 0341 0000 9ebd 0000 61bd
00000020: 0000 4a3d 0000 8cb1 0000 56b1 0000 a6b1
00000030: 0000 0d31 0000 ec32 0000 0db2 0000 a3b1
00000040: 0000 2131 0000 9ab1 0000 05be 0000 e33d
00000050: 0000 e33d 0000 4840 0000 66c0 0000 54be
00000060: 0000 07be 0000 343c 0000 fb3d 0000 abbf
00000070: 0000 8fbf 0000 de3f 0000 4cbf 0000 e6bf
00000080: 0000 77bd 0000 ee3f 0000 6bbe 0000 b83f
00000090: 0000 35bf 0000 01bf 0000 303f 0000 3dbf
000000a0: 0000 1cbf 0000 dc3d 0000 253f 0000 753e
000000b0: 0000 913e 0000 23be 0000 cb3e 0000 1dbe
000000c0: 0000 04be 0000 8d40 0000 50be 0000 1ebc
000000d0: 0000 a6bf 0000 313d 0000 66bf 0000 3fbf
000000e0: 0000 123f 0000 9cbe 0000 41bf 0000 943e
000000f0: 0000 cd3e 0000 823e 0000 a33c 0000 423d
00000100: 0000 a9bf 0000 e7bd 0000 c5be 0000 7c40
00000110: 0000 fbbd 0000 6e3c 0000 7cbe 0000 29be
00000120: 0000 89ae 0000 012f 0000 2b2e 0000 592e
00000130: 0000 2430 0000 c72f 0000 2baf 0000 542d
00000140: 0000 37af 0000 fd3e 0000 503f 0000 2fbf
00000150: 0000 2f3f 0000 463f 0000 ddbe 0000 34bf
00000160: 0000 fdbe 0000 a23e 0000 69bd 0000 77bf
00000170: 0000 ec3b 0000 c5bc 0000 a0c0 0000 5cbf
00000180: 0000 613e 0000 b240 0000 853f 0000 06be
00000190: 0000 30be 0000 40be 0000 68be 0000 dc3f
000001a0: 0000 f53c 0000 a1bd 0000 5abd 0000 09be
000001b0: 0000 efae 0000 502f 0000 a4ac 0000 60ae
000001c0: 0000 b62f 0000 052f 0000 07af 0000 43ae
000001d0: 0000 20af 0000 2d40 0000 ca3f 0000 d2bf
000001e0: 0000 c53e 0000 ae3f 0000 bebe 0000 b8bf
000001f0: 0000 08bf 0000 a1bd 0000 baad 0000 86ad
00000200: 0000 9dad 0000 59ae 0000 52ae 0000 bc2d
00000210: 0000 d6ad 0000 84ae 0000 14ae 0000 51c0
00000220: 0000 9fc0 0000 8ebf 0000 6ebf 0000 16bf
00000230: 0000 10bf 0000 8540 0000 b240 0000 ce3f
00000240: 0000 173f 0000 0ebf 0000 01be 0000 4bc0
00000250: 0000 6140 0000 3dbd 0000 2f3e 0000 e4be
00000260: 0000 683c 0000 e7be 0000 d940 0000 1bbf
00000270: 0000 373e 0000 46c0 0000 8c3e 0000 6cbd
00000280: 0000 04bf 0000 393d 0000 fa3d 0000 63bd
00000290: 0000 79bd 0000 b6be 0000 52c0 0000 8440
000002a0: 0000 d53d 0000 85bd 0000 d23c 0000 80b1
000002b0: 0000 5332 0000 88b2 0000 2132 0000 2a33
000002c0: 0000 8fb2 0000 39b2 0000 97b2 0000 f530
000002d0: 0000 a53e 0000 0fc0 0000 703e 0000 94bf
000002e0: 0000 89c0 0000 bdbe 0000 4d3f 0000 d540
000002f0: 0000 ad3d 0000 d8af 0000 3030 0000 57b0
00000300: 0000 8f2f 0000 2432 0000 53b0 0000 05b1
00000310: 0000 b1b0 0000 94b0 0000 20ae 0000 adae
00000320: 0000 b5ad 0000 8eae 0000 ffad 0000 35ad
00000330: 0000 52ae 0000 612d 0000 bbad 0000 2c3f
00000340: 0000 5e3f 0000 5bbf 0000 2a3f 0000 873f
00000350: 0000 c8be 0000 64bf 0000 dcbe 0000 833d
00000360: 0000 4dbe 0000 6cbf 0000 073d 0000 523e
00000370: 0000 603f 0000 59bc 0000 3cbc 0000 263d
00000380: 0000 c6bc 0000 3740 0000 24c0 0000 9dbe
00000390: 0000 ae40 0000 0b41 0000 89c0 0000 20c0
000003a0: 0000 ccbf 0000 02bf 0000 073e 0000 9dbe
000003b0: 0000 823e 0000 3cbe 0000 66c0 0000 6c40
000003c0: 0000 e93d 0000 01c0 0000 f83f 0000 98bd
000003d0: 0000 2f3e 0000 b1bd 0000 183e 0000 bbbe
000003e0: 0000 3f3e 0000 0dbd 0000 cb3d 0000 50bd
000003f0: 0000 553f 0000 7e3f 0000 85bf 0000 5a3f
