apps/hardware_benchmarks/apps/sequential_0_fp/pytorch_gold/sequential_0/kernel_host_stencil.npy (npy, 4736 bytes, 1 tensors)

array f4 [32, 4, 3, 3]
000000 00 00 41 3c 00 00 9c bc 00 00 b9 bc 00 00 84 bb
       0.011779785 -0.019042969 -0.022583008 -0.0040283203
000010 00 00 d7 3c 00 00 6c 3d 00 00 80 bb 00 00 40 3d
       0.026245117 0.057617188 -0.00390625 0.046875
000020 00 00 a9 3d 00 00 28 3c 00 00 fd bc 00 00 f5 bc
       0.08251953 0.010253906 -0.030883789 -0.029907227
000030 00 00 ea bb 00 00 6b 3d 00 00 d9 3d 00 00 dc bb
       -0.0071411133 0.057373047 0.10595703 -0.006713867
000040 00 00 98 3d 00 00 0a 3e 00 00 5e 3b 00 00 dc bb
       0.07421875 0.13476562 0.0033874512 -0.006713867
000050 00 00 01 bc 00 00 66 bb 00 00 8f 3c 00 00 05 3d
       -0.007873535 -0.0035095215 0.017456055 0.032470703
000060 00 00 f9 3a 00 00 91 3c 00 00 2d 3d 00 00 00 00
       0.0018997192 0.017700195 0.042236328 0.0
000070 00 00 00 00 00 00 00 00 00 00 00 00 00 00 00 00
       0.0 0.0 0.0 0.0
000080 00 00 00 00 00 00 00 00 00 00 00 00 00 00 00 00
       0.0 0.0 0.0 0.0
000090 00 00 0f b1 00 00 82 b2 00 00 f9 b1 00 00 64 b1
       -2.0809239e-09 -1.5133992e-08 -7.246854e-09 -3.3178367e-09
0000a0 00 00 72 b2 00 00 b9 b1 00 00 82 31 00 00 84 b0
       -1.4086254e-08 -5.3842086e-09 3.783498e-09 -9.604264e-10
0000b0 00 00 c5 31 00 00 6d b0 00 00 77 b2 00 00 e8 b1
       5.7334546e-09 -8.62201e-10 -1.4377292e-08 -6.7520887e-09
0000c0 00 00 45 b1 00 00 75 b2 00 00 d3 b1 00 00 7a b0
       -2.8667273e-09 -1.4260877e-08 -6.1409082e-09 -9.094947e-10
0000d0 00 00 ac b1 00 00 1f 31 00 00 8e 31 00 00 fb b1
       -5.005859e-09 2.3137545e-09 4.132744e-09 -7.3050614e-09
0000e0 00 00 21 30 00 00 7f 30 00 00 19 b2 00 00 a1 2d
       5.857146e-10 9.276846e-10 -8.905772e-09 1.8303581e-11
0000f0 00 00 69 31 00 00 c8 2f 00 00 f5 31 00 00 00 00
       3.3905962e-09 3.6379788e-10 7.1304385e-09 0.0
000100 00 00 00 00 00 00 00 00 00 00 00 00 00 00 00 00
       0.0 0.0 0.0 0.0
000110 00 00 00 00 00 00 00 00 00 00 00 00 00 00 00 00
       0.0 0.0 0.0 0.0
000120 00 00 92 3c 00 00 d3 3d 00 00 d1 bd 00 00 d7 bc
       0.017822266 0.103027344 -0.10205078 -0.026245117
000130 00 00 7c 3e 00 00 45 be 00 00 1a 3b 00 00 08 3e
       0.24609375 -0.19238281 0.0023498535 0.1328125
000140 00 00 19 be 00 00 a7 bb 00 00 2e 3e 00 00 2e be
       -0.14941406 -0.0050964355 0.16992188 -0.16992188
000150 00 00 3b bd 00 00 ee 3e 00 00 be be 00 00 50 bc
       -0.045654297 0.46484375 -0.37109375 -0.0126953125
000160 00 00 5c 3e 00 00 74 be 00 00 4a 3c 00 00 0d 3d
       0.21484375 -0.23828125 0.012329102 0.034423828
000170 00 00 f7 bc 00 00 65 bc 00 00 e5 3d 00 00 b5 bd
       -0.030151367 -0.013977051 0.111816406 -0.088378906
000180 00 00 cd 3a 00 00 37 3d 00 00 3e bd 00 00 00 00
       0.0015640259 0.044677734 -0.04638672 0.0
000190 00 00 00 00 00 00 00 00 00 00 00 00 00 00 00 00
       0.0 0.0 0.0 0.0
0001a0 00 00 00 00 00 00 00 00 00 00 00 00 00 00 00 00
       0.0 0.0 0.0 0.0
0001b0 00 00 66 3d 00 00 7b 3d 00 00 22 3e 00 00 91 3d
       0.056152344 0.061279297 0.15820312 0.07080078
0001c0 00 00 b4 3d 00 00 12 3e 00 00 33 3e 00 00 0f 3e
       0.087890625 0.14257812 0.17480469 0.13964844
0001d0 00 00 34 3e 00 00 0a bd 00 00 8d bd 00 00 a3 bd
       0.17578125 -0.033691406 -0.068847656 -0.079589844
0001e0 00 00 27 bc 00 00 31 bd 00 00 1c bd 00 00 03 bd
       -0.010192871 -0.04321289 -0.038085938 -0.031982422
0001f0 00 00 4d bd 00 00 10 bd 00 00 1e bd 00 00 37 bc
       -0.050048828 -0.03515625 -0.03857422 -0.011169434
000200 00 00 db bd 00 00 ef bc 00 00 38 ba 00 00 2e bd
       -0.106933594 -0.029174805 -0.0007019043 -0.04248047
000210 00 00 13 be 00 00 a1 bd 00 00 f0 bd 00 00 00 00
       -0.14355469 -0.07861328 -0.1171875 0.0
000220 00 00 00 00 00 00 00 00 00 00 00 00 00 00 00 00
       0.0 0.0 0.0 0.0
000230 00 00 00 00 00 00 00 00 00 00 00 00 00 00 00 00
       0.0 0.0 0.0 0.0
000240 00 00 a4 3c 00 00 92 3c 00 00 97 3b 00 00 17 bd
       0.020019531 0.017822266 0.0046081543 -0.036865234
000250 00 00 a4 3d 00 00 9a 3d 00 00 d8 bd 00 00 a7 3d
       0.080078125 0.07519531 -0.10546875 0.08154297
000260 00 00 c6 3d 00 00 b2 bd 00 00 a6 ba 00 00 ca 3c
       0.09667969 -0.08691406 -0.0012664795 0.024658203
000270 00 00 46 3c 00 00 d8 bd 00 00 33 be 00 00 ad 3c
       0.012084961 -0.10546875 -0.17480469 0.021118164
000280 00 00 bd bc 00 00 eb bd 00 00 7b 3d 00 00 fd 3d
       -0.023071289 -0.114746094 0.061279297 0.123535156
000290 00 00 84 3d 00 00 1e 3e 00 00 96 be 00 00 16 bf
       0.064453125 0.15429688 -0.29296875 -0.5859375
0002a0 00 00 53 3e 00 00 1e be 00 00 f8 be 00 00 00 00
       0.20605469 -0.15429688 -0.484375 0.0
0002b0 00 00 00 00 00 00 00 00 00 00 00 00 00 00 00 00
       0.0 0.0 0.0 0.0
0002c0 00 00 00 00 00 00 00 00 00 00 00 00 00 00 00 00
       0.0 0.0 0.0 0.0
0002d0 00 00 40 be 00 00 e0 be 00 00 14 be 00 00 70 3e
       -0.1875 -0.4375 -0.14453125 0.234375
0002e0 00 00 14 3f 00 00 73 3e 00 00 07 bd 00 00 3d be
       0.578125 0.23730469 -0.032958984 -0.18457031
0002f0 00 00 51 bd 00 00 9c be 00 00 2c bf 00 00 98 be
       -0.05102539 -0.3046875 -0.671875 -0.296875
000300 00 00 ca 3e 00 00 74 3f 00 00 e3 3e 00 00 be bd
       0.39453125 0.953125 0.44335938 -0.09277344
000310 00 00 92 be 00 00 f0 bd 00 00 b0 bd 00 00 43 be
       -0.28515625 -0.1171875 -0.0859375 -0.19042969
000320 00 00 84 bd 00 00 f0 3d 00 00 8f 3e 00 00 d1 3d
       -0.064453125 0.1171875 0.27929688 0.10205078
000330 00 00 06 bd 00 00 eb bd 00 00 83 bc 00 00 00 00
       -0.032714844 -0.114746094 -0.015991211 0.0
000340 00 00 00 00 00 00 00 00 00 00 00 00 00 00 00 00
       0.0 0.0 0.0 0.0
000350 00 00 00 00 00 00 00 00 00 00 00 00 00 00 00 00
       0.0 0.0 0.0 0.0
000360 00 00 9d bd 00 00 88 bd 00 00 65 bc 00 00 6d 3d
       -0.076660156 -0.06640625 -0.013977051 0.057861328
000370 00 00 0b bd 00 00 da bc 00 00 b8 3d 00 00 08 bd
       -0.033935547 -0.026611328 0.08984375 -0.033203125
000380 00 00 ec be 00 00 93 3d 00 00 2c bc 00 00 6a bc
       -0.4609375 0.071777344 -0.010498047 -0.014282227
000390 00 00 c5 3d 00 00 08 be 00 00 5a be 00 00 00 3e
       0.096191406 -0.1328125 -0.21289062 0.125
0003a0 00 00 43 be 00 00 4f bf 00 00 c5 bd 00 00 0f 3b
       -0.19042969 -0.80859375 -0.096191406 0.0021820068
0003b0 00 00 18 3e 00 00 48 bd 00 00 12 3e 00 00 a5 3e
       0.1484375 -0.048828125 0.14257812 0.32226562
0003c0 00 00 f4 38 00 00 ca 3c 00 00 91 be 00 00 00 00
       0.00011634827 0.024658203 -0.28320312 0.0
0003d0 00 00 00 00 00 00 00 00 00 00 00 00 00 00 00 00
       0.0 0.0 0.0 0.0
0003e0 00 00 00 00 00 00 00 00 00 00 00 00 00 00 00 00
       0.0 0.0 0.0 0.0
0003f0 00 00 fd 3b 00 00 3f 3d 00 00 09 3c 00 00 05 be
       0.0077209473 0.04663086 0.008361816 -0.12988281
